policy_net.pth (torch, 23673 bytes, 6 tensors)

weight f4 [64, 6]
0.1349101 0.58323514 0.23443034 -0.2514033 -0.059726086 -0.42503187 -0.05196324 -0.19010675
0.19580996 0.004027158 0.07713103 0.14488184 -0.19126745 0.08458176 -0.16633113 -0.22971
0.20077759 0.07079145 -0.24716115 -0.11159569 0.08390358 0.05609858 -0.08039582 -0.1033864
-0.45864865 0.032672767 0.40943614 -0.10923412 1.0954465 0.08016455 -0.18250047 0.4678893
0.18004903 0.21319123 -0.18333244 -0.049148496 0.27013817 -0.4942382 -0.7575116 -0.025239524
-0.34524605 0.38113105 0.14199121 -0.27179328 0.19333431 0.5932067 0.77241164 0.86696565
-0.06322616 -0.09493378 0.20532656 -0.3461777 -0.38556293 -0.038512856 0.035379916 -0.33852467
-0.03062746 -0.34248206 -0.13753146 0.021369487 -0.21475838 0.3749979 0.36350724 0.20278381
-0.30681804 -0.4580382 -0.36833823 0.3988666 -0.363911 0.5191701 0.17186566 -0.034801856
0.34605002 0.06395677 -0.58890337 -0.12896019 -0.9700292 0.0359629 0.15828478 0.0058977664
0.04866231 -0.0057504033 0.48526603 0.03887038 0.51048183 0.03575022 0.11421913 0.020653721
0.052450802 0.17538235 -0.3098775 -0.19395173 -0.2515606 -0.23167941 0.2392593 0.27007574
-0.12955537 0.01756916 -0.4602477 -0.16233264 0.5117971 0.08903387 0.2261528 -0.29651386
-0.06117947 0.31293198 0.31757092 1.4164687 0.042521294 -0.19980308 0.30520555 0.3494591
-0.38517144 0.5114304 0.29341242 -0.045316458 -0.19268814 -0.30331692 0.210515 0.39154726
0.18941973 -0.33959293 0.49347576 0.035297915 0.44330516 -0.442752 0.47581035 -0.5244985
0.4770323 -0.22931284 0.003880198 -0.36118305 -0.22558683 0.30855462 0.4181947 0.14807858
-0.15171373 -0.4509441 -0.63591945 0.40446973 0.30986634 -0.13390626 0.8861164 0.06334153
-0.16183785 -0.008934761 -0.29872537 -0.33024523 -0.15840341 0.18186362 0.20571166 -0.08638475
-0.49329013 0.0015860752 0.20750205 -0.17152615 -0.2318766 -0.0808754 -0.019521356 -0.06686741
-0.11977288 -0.14237821 0.09126517 -0.015345246 -0.1436727 -0.31319112 -0.23650362 0.17685002
-0.18660876 0.06038955 -0.19948517 -0.37850544 0.008023679 0.021448523 -0.031927522 0.37138838
0.40331692 0.54359585 -0.39998758 -0.16048327 0.030461056 0.72349155 -0.03903106 0.36747757
0.010708075 -0.41079476 0.3160373 -0.47145513 0.3413442 0.20155534 0.15281747 0.32508153
0.31199792 0.35220018 -0.16183805 0.48270592 0.31548288 -0.63290346 0.3056147 0.21948375
0.11419969 0.16585478 -0.7628727 -0.2677103 -0.07055345 0.37515444 0.2646126 0.44202808
0.5627012 0.38934907 -0.17024192 0.3361663 -0.46382248 0.011097984 0.31356323 -0.51009345
0.40150192 -0.16595374 0.15422073 -0.4774101 -0.27553362 -0.07231763 0.4331902 -0.36041555
0.37591016 -0.38559267 0.025547132 -0.13768171 -0.10753469 -0.2891378 0.07368551 0.35039923
-0.28349784 1.1550425 0.4294107 0.028693054 0.5728983 0.2272436 0.22733097 0.47718135
-0.1744416 -0.39180964 -0.32459357 0.23031071 -0.33576295 0.026518691 -0.44670457 -0.10671683
0.18567601 0.17576578 0.13019124 -0.34199956 -0.07311684 -0.03877279 -0.18766877 -0.04775542
00000000: e025 0a3e e64e 153f 820e 703e efb7 80be
00000010: 57a3 74bd c79d d9be 68d7 54bd 58ab 42be
00000020: 6882 483e 40f6 833b e0f6 9d3d e85b 143e
00000030: 9ddb 43be 3439 ad3d b552 2abe 1939 6bbe
00000040: a498 4d3e 1cfb 903d d017 7dbe 488c e4bd
00000050: a4d5 ab3d a0c7 653d 90a6 a4bd 40bc d3bd
00000060: ffd3 eabe e1d3 053d 9da1 d13e 23b6 dfbd
00000070: 9737 8c3f 502d a43d 67e1 3abe 308f ef3e
00000080: c65e 383e cd4e 5a3e 80bb 3bbe ef4f 49bd
00000090: 8d4f 8a3e ca0c fdbe 48ec 41bf 1ec3 cebc
000000a0: 17c4 b0be 9c23 c33e 2566 113e 7d28 8bbe
000000b0: 6ef9 453e 65dc 173f c5bc 453f 76f1 5d3f
000000c0: b87c 81bd a46c c2bd 2041 523e 343e b1be
000000d0: 8168 c5be a8bf 1dbd 88ea 103d 1b53 adbe
000000e0: 70e6 fabc cf59 afbe 0cd5 0cbe 100f af3c
000000f0: 9fe9 5bbe baff bf3e 9f1d ba3e 8fa6 4f3e
00000100: 4117 9dbe fc83 eabe d496 bcbe 3e38 cc3e
00000110: 8b52 babe 55e8 043f 8dfd 2f3e 648c 0ebd
00000120: 782d b13e c4fb 823d 5fc2 16bf 240e 04be
00000130: d553 78bf d54d 133d 6815 223e 0d42 c13b
00000140: 2152 473d e16d bcbb ca74 f83e 8c36 1f3d
00000150: f0ae 023f d36e 123d b8eb e93d fe31 a93c
00000160: a7d6 563d 6e97 333e 44a8 9ebe 489b 46be
00000170: 8dcc 80be 5e3d 6dbe 6400 753e 5e47 8a3e
00000180: 2aaa 04be 33ed 8f3c 96a5 ebbe 873a 26be
00000190: 2205 033f 6457 b63d 9994 673e aad0 97be
000001a0: 5397 7abd 9f38 a03e a898 a23e d94e b53f
000001b0: cf2a 2e3d 2e99 4cbe e743 9c3e 4eec b23e
000001c0: 3135 c5be 1aed 023f 273a 963e c09d 39bd
000001d0: 0a50 45be 5b4c 9bbe 3f91 573e e278 c83e
000001e0: 3ff7 413e 20df adbe dba8 fc3e 8c94 103d
000001f0: e5f8 e23e 64b0 e2be 6a9d f33e 8945 06bf
00000200: 943d f43e fcd0 6abe ec4a 7e3b fcec b8be
00000210: 3c00 67be dffa 9d3e 9e1d d63e e9a1 173e
00000220: d85a 1bbe 25e2 e6be 9ecb 22bf a816 cf3e
00000230: cda6 9e3e b91e 09be 86d8 623f 34b9 813d
00000240: d2b8 25be 1b63 12bc 88f2 98be e715 a9be
00000250: 8134 22be 753a 3a3e 14a6 523e 7dea b0bd
00000260: 8690 fcbe dae3 cf3a 6b7b 543e 8da4 2fbe
00000270: 0f71 6dbe 00a2 a5bd 40eb 9fbc c8f1 88bd
00000280: 7c4b f5bd 98cb 11be 3ce9 ba3d a06a 7bbc
00000290: f01e 13be 965a a0be 012e 72be 2c18 353e
000002a0: 5e16 3fbe 085b 773d d745 4cbe 77cb c1be
000002b0: c075 033c d0b4 af3c 6fc6 02bd 9e26 be3e
000002c0: 8e7f ce3e 1929 0b3f 2ccb ccbe ba55 24be
000002d0: 7789 f93c be36 393f 08df 1fbd 0526 bc3e
000002e0: ec70 2f3c b153 d2be a4cf a13e 9162 f1be
000002f0: abc4 ae3e 8664 4e3e 2f7c 1c3e 1671 a63e
00000300: 31be 9f3e 9553 b43e e0b8 25be 3b25 f73e
00000310: f986 a13e f605 22bf 8879 9c3e 59c0 603e
00000320: 87e1 e93d d6d5 293e a04b 43bf 5311 89be
00000330: 547e 90bd 3e14 c03e 4d7b 873e 8151 e23e
00000340: 300d 103f c358 c73e e653 2ebe fd1d ac3e
00000350: 247a edbe 52d4 353c 5c8b a03e 7c95 02bf
00000360: a991 cd3e c7ef 29be 0aec 1d3e 196f f4be
00000370: be12 8dbe 441b 94bd 1bcb dd3e 6388 b8be
00000380: 4c77 c03e 676c c5be 3848 d13c 6ffc 0cbe
00000390: 263b dcbd df09 94be 6ee8 963d 8767 b33e
000003a0: a126 91be 6fd8 933f b8db db3e b20d eb3c
000003b0: 77a9 123f 8cb2 683e 73c9 683e 1d51 f43e
000003c0: d2a0 32be 469b c8be 2131 a6be 92d6 6b3e
000003d0: 1fe9 abbe ba3d d93c 76b6 e4be 5a8e dabd
000003e0: da21 3e3e f2fb 333e da50 053e 911a afbe
000003f0: 48be 95bd 38d0 1ebd 3e2c 40be 309b 43bd

bias f4 [64]
-0.25207558 -0.35881543 -0.38941273 -0.3087733 -0.17057425 -0.44902554 -0.008432793 0.038749084
-0.29494664 -0.11421627 -0.4548298 0.5130322 0.09232981 0.25773957 0.08735664 -0.06843528
0.7310848 -0.15346989 0.70565027 -0.11043547 -0.08656031 0.06451618 -0.014821611 0.13858697
0.69950974 0.41417006 -0.38298047 -0.21917282 -0.06041512 -0.11504674 -0.092187464 0.6475242
-0.08658932 -0.43559074 0.2853334 0.40826252 0.43382767 0.50960857 0.0072503486 0.024368076
-0.29056442 0.4911611 -0.3186074 0.034588166 0.4343795 0.049021468 0.23243749 0.40122458
-0.47992232 -0.30847147 0.115358464 0.3288278 -0.3020565 -0.4149374 -0.29800275 0.16299015
-0.1517269 -0.005665204 0.27793437 0.19874488 -0.19437988 0.29110622 -0.27889973 -0.3630198
00000000: 0d10 81be a8b6 b7be 1b61 c7be 8917 9ebe
00000010: 04ab 2ebe ade6 e5be b329 0abc 5cb7 1e3d
00000020: 3f03 97be 38ea e9bd 74df e8be 1456 033f
00000030: 6917 bd3d 71f6 833e 0ae8 b23d cc27 8cbd
00000040: 6028 3b3f 3627 1dbe 7fa5 343f fe2b e2bd
00000050: 8846 b1bd 0f21 843d 58d6 72bc bee9 0d3e
00000060: 1213 333f 190e d43e 0416 c4be d76e 60be
00000070: d875 77bd a09d ebbd c8cc bcbd 25c4 253f
00000080: be55 b1bd c005 dfbe 3817 923e c907 d13e
00000090: a91e de3e b575 023f 5594 ed3b 8f9f c73c
000000a0: dcc4 94be 7879 fb3e 8220 a3be 52ac 0d3d
000000b0: fd66 de3e bcca 483d 1804 6e3e 4f6d cd3e
000000c0: 61b8 f5be f9ef 9dbe 0f41 ec3d 1e5c a83e
000000d0: 26a7 9abe ad72 d4be d193 98be e4e6 263e
000000e0: 4c5e 1bbe 2da3 b9bb 6a4d 8e3e c783 4b3e
000000f0: 850b 47be e00b 953e f2cb 8ebe bbdd b9be

weight f4 [64, 64]
0.14015591 -0.036621526 -0.018052787 0.07011829 0.09445673 0.110674754 -0.05136205 0.11806366
-0.019594595 0.04891473 0.10991751 0.1149042 -0.046729255 0.041329548 0.067128144 -0.06925678
0.019856658 -0.023689236 0.14961182 0.09270967 -0.0016389702 -0.13673335 0.1380841 0.003677491
-0.086316794 0.07979592 0.02762708 0.047566906 0.010311604 -0.08623775 0.12786111 0.039342742
-0.07409109 0.1354018 -0.0777425 -0.07159897 -0.08205136 -0.010480869 0.1544211 0.18269141
0.1050336 0.023284694 0.10749668 -0.44608322 0.13550322 0.05426659 0.108922765 0.12373219
0.26945737 -0.04943367 0.12709449 -0.021425556 -0.04779782 0.047768604 0.023578241 -2.473503
0.1659169 0.10848381 -0.075006396 0.0005677087 0.026900174 2.5105064 -0.070073366 0.060263738
0.11325271 -0.004855141 0.07140067 0.090887696 0.622039 -0.055362545 0.16516167 0.052138552
0.05742392 -0.011918187 0.04927131 -0.09484357 0.35481033 -0.07892481 -0.19486278 0.033017427
-0.21955752 0.838323 -0.1620273 0.0906329 0.19507568 -0.053751703 -0.032736756 0.286229
-0.10847422 -0.10295369 -0.11701128 -0.066586345 -0.036982343 -0.022539096 -0.05377848 -0.21471955
0.1093762 0.18819043 -0.3094546 0.23811698 -0.06327197 -0.15899183 0.2062271 -0.11400452
-0.11920457 0.03614179 -0.055501923 0.08135521 -0.15038194 0.003083137 0.015419154 0.22665848
0.2832691 -0.07778482 0.1311371 -0.052137908 -0.11778015 0.04004898 0.29677254 1.5513825
0.54621243 0.10880304 -0.16072008 0.20586051 0.08898187 -0.7348951 0.17252037 -0.07538526
-0.013029456 -0.07106593 0.10914326 0.0556027 0.06951256 -0.06267446 -0.01293842 0.06815957
-0.09246583 -0.07781145 -0.12416902 -0.011087751 0.0055246055 -0.078349374 -0.06546434 -0.011379898
-0.040743083 0.044788137 -0.10026711 -0.021032646 0.035499457 -0.07504182 -0.062457196 0.089780174
-0.04203552 -0.052034803 0.05868195 0.12448162 -0.103463545 0.043299373 -0.060374524 0.03625456
0.10697386 -0.04800649 0.0035713844 -0.06232778 0.015023864 0.04244789 -0.13551362 -0.06796152
0.08285393 -0.10606892 0.048935637 -0.0566115 -0.10127822 -0.11827648 -0.033057816 0.12414412
0.024977118 -0.0704719 0.043715745 -0.022700299 -0.09345685 0.037745938 -0.09482264 0.05838433
0.013638273 -0.017801307 -0.0018548515 -0.046333853 -0.102795266 -0.080956 0.09946071 -0.08121984
-0.086139694 0.032934114 0.04719557 -0.08396576 -0.5381001 -0.28827426 0.028678982 0.2378441
-0.023537323 0.07441519 -0.13245293 -0.1376952 0.14096275 -0.18774572 0.13976462 -0.1055014
-0.055496752 0.22098204 0.15860242 -0.04702181 -0.072132036 0.09422903 -0.07496766 -0.07987059
0.08477986 -0.01182574 0.07656641 0.07810384 -0.09080884 0.0374202 -0.010001142 0.17920627
-0.012704298 -0.00044275835 0.015152871 0.18992512 0.27604574 0.033483136 0.05384599 0.06408563
0.04293741 -0.31337348 -0.012939945 0.27611634 0.108867995 0.0125859855 0.1305928 -0.10270366
0.1030301 -0.09172826 0.3171296 0.05505486 0.013918862 -0.048124064 -0.06050814 0.842283
-0.4546023 -0.06412992 0.15779965 0.19566013 0.111127324 -1.7601174 -0.15947258 -0.08979212
00000000: 0885 0f3e 7400 16bd 70e3 93bc 2e9a 8f3d
00000010: 8872 c13d 72a9 e23d 0361 52bd 5ccb f13d
00000020: d884 a0bc d05a 483d 6e1c e13d e552 eb3d
00000030: 2d67 3fbd 2c49 293d 7b7a 893d 80d6 8dbd
00000040: 6eaa a23c ee0f c2bc d733 193e 91de bd3d
00000050: b7d2 d6ba d403 0cbe eb65 0d3e 1002 713b
00000060: dcc6 b0bd 0b6c a33d 3052 e23c 84d5 423d
00000070: 00f2 283c 6b9d b0bd 06ee 023e db25 213d
00000080: 12bd 97bd c5a6 0a3e 7637 9fbd 7ba2 92bd
00000090: 8b0a a8bd f3b7 2bbc 9120 1e3e 7513 3b3e
000000a0: db1b d73d 8bbf be3c 3827 dc3d 0565 e4be
000000b0: 5bc1 0a3e a546 5e3d e612 df3d 4d67 fd3d
000000c0: 51f6 893e f67a 4abd 0f25 023e a684 afbc
000000d0: a6c7 43bd 03a9 433d 2827 c13c e04d 1ec0
000000e0: 1fe6 293e c32c de3d f49c 99bd 49d2 143a
000000f0: c15d dc3c 23ac 2040 a082 8fbd 1cd7 763d
00000100: 09f1 e73d e017 9fbb 843a 923d 5423 ba3d
00000110: f33d 1f3f d6c3 62bd 2420 293e 3c8f 553d
00000120: 5835 6b3d 8044 43bc b7d0 493d 583d c2bd
00000130: b3a9 b53e 55a3 a1bd 1c8a 47be 483d 073d
00000140: b0d3 60be 569c 563f 7cea 25be be9d b93d
00000150: ebc1 473e bf2a 5cbd fa16 06bd 9c8c 923e
00000160: bb27 debd 62d9 d2bd 9ca3 efbd 6c5e 88bd
00000170: cc7a 17bd e9a3 b8bc d346 5cbd 71df 5bbe
00000180: a100 e03d feb4 403e d570 9ebe f0d4 733e
00000190: bc94 81bd c1ce 22be 322d 533e 347b e9bd
000001a0: 8721 f4bd 6a09 143d fc55 63bd 8f9d a63d
000001b0: b9fd 19be 750e 4a3b 9fa0 7c3c 2919 683e
000001c0: a608 913e a64d 9fbd ce48 063e 8f8e 55bd
000001d0: b836 f1bd 660a 243d 92f2 973e b493 c63f
000001e0: 94d4 0b3f 21d4 de3d ce93 24be 19cd 523e
000001f0: 203c b63d 1622 3cbf 2ea9 303e 9663 9abd
00000200: 8079 55bc 048b 91bd 8086 df3d a8bf 633d
00000210: 9a5c 8e3d 785b 80bd abfb 53bc 3f97 8b3d
00000220: ba5e bdbd 9c5b 9fbd 544c febd 66a9 35bc
00000230: c007 b53b a375 a0bd 2b12 86bd c072 3abc
00000240: 38e2 26bd c473 373d d858 cdbd a84c acbc
00000250: e167 113d 87af 99bd 1ed3 7fbd abde b73d
00000260: 702d 2cbd 7222 55bd 7c5c 703d 38f0 fe3d
00000270: b2e4 d3bd af5a 313d 474b 77bd a97f 143d
00000280: 1c15 db3d 74a2 44bd e30d 6a3b 6a4b 7fbd
00000290: a726 763c d7dd 2d3d 15c4 0abe 692f 8bbd
000002a0: 52af a93d a93a d9bd bc70 483d 76e1 67bd
000002b0: f56a cfbd f03a f2bd a267 07bd 463f fe3d
000002c0: d09c cc3c 9253 90bd 480f 333d faf5 b9bc
000002d0: 4e66 bfbd 7c9b 1a3d 5f32 c2bd 6824 6f3d
000002e0: 1073 5f3c 0cd4 91bc 7d1e f3ba 91c8 3dbd
000002f0: 5386 d2bd 42cc a5bd 0fb2 cb3d 9656 a6bd
00000300: 026a b0bd ece5 063d 2450 413d 3ef6 abbd
00000310: eec0 09bf af98 93be 2ff0 ea3c 678d 733e
00000320: 58d1 c0bc fe66 983d bea1 07be f8ff 0cbe
00000330: 8a58 103e 6a40 40be 751e 0f3e 1e11 d8bd
00000340: 9050 63bd 1e49 623e ac68 223e f199 40bd
00000350: f6b9 93bd 26fb c03d a588 99bd 3193 a3bd
00000360: 10a1 ad3d c0c0 41bc dace 9c3d e8f4 9f3d
00000370: fcf9 b9bd ec45 193d d4db 23bc d981 373e
00000380: b025 50bc 0522 e8b9 bf43 783c bb7b 423e
00000390: de55 8d3e 9d25 093d 9d8d 5c3d 543f 833d
000003a0: 23df 2f3d 7d72 a0be 1002 54bc 1f5f 8d3e
000003b0: 2ff6 de3d 7335 4e3c 1eba 053e 4c56 d2bd
000003c0: 7201 d33d 07dc bbbd d05e a23e 3481 613d
000003d0: f00b 643c bd1d 45bd 62d7 77bd dc9f 573f
000003e0: a2c1 e8be 8c56 83bd 3b96 213e 215b 483e
000003f0: b996 e33d 874b e1bf c84c 23be eee4 b7bd

bias f4 [64]
0.019455766 -0.12945448 0.049471024 0.1650427 -0.12662831 -0.02811603 -0.13391171 -0.027154122
-0.24342398 -0.033890408 0.024098925 -0.08910197 -0.003588985 -0.12545806 -0.11032577 0.007229324
0.14862932 -0.1317364 -0.0447668 0.11968938 -0.20054555 -0.09425183 0.1758514 -0.22649771
-0.010514247 0.02266924 0.17298101 -0.015162908 -0.12297491 0.023274696 0.012614738 -0.34024712
0.07949868 -0.021067165 -0.15435772 0.0051373816 -0.09436282 0.08962732 -0.005928901 -0.2312945
-0.024972545 -0.2934625 -0.2483696 0.0354942 -0.12073028 -0.068714574 -0.025424458 0.04428396
-0.12263009 -0.013401284 -0.03640739 0.16645893 0.082137376 0.069069214 -0.14375672 0.2362313
-0.17983568 -0.15807667 -0.23696113 -0.41079307 0.08040807 -0.010245345 -0.15428959 -0.14236103
00000000: b361 9f3c b78f 04be 21a2 4a3d f400 293e
00000010: daaa 01be 9753 e6bc 2720 09be 5272 debc
00000020: 2344 79be abd0 0abd 1c6b c53c 187b b6bd
00000030: 2d35 6bbb 1478 00be 7af2 e1bd f7e3 ec3b
00000040: 4932 183e e8e5 06be 645d 37bd b51f f53d
00000050: d05b 4dbe 1a07 c1bd 6412 343e 04ef 67be
00000060: f343 2cbc d8b4 b93c ef21 313e d86d 78bc
00000070: 45da fbbd 93aa be3c 0cae 4e3c df34 aebe
00000080: 34d0 a23d 0c95 acbc f30f 1ebe 7b57 a83b
00000090: 4b41 c1bd 878e b73d 3a47 c2bb 77d8 6cbe
000000a0: 3993 ccbc b840 96be 9a54 7ebe 5e62 113d
000000b0: 7041 f7bd 3aba 8cbd f446 d0bc 1963 353d
000000c0: 7c25 fbbd 0f91 5bbc ea1f 15bd 3674 2a3e
000000d0: a437 a83d 2974 8d3d f634 13be 9ee6 713e
000000e0: d826 38be dade 21be f0a5 72be 7853 d2be
000000f0: fcac a43d 17dc 27bc 17fe 1dbe 17c7 11be

weight f4 [4, 64]
0.29771414 -0.76572335 0.0687865 -0.2030705 -0.5851654 -0.38875484 0.11115804 0.026737029
-0.69297653 -0.5943805 0.07326979 0.10654554 0.0864612 -0.32890752 -0.0018426031 -0.048313882
-0.06716991 -0.45777994 -0.46581206 -0.007928109 -0.20608765 0.020308465 -0.09092042 -0.8563185
-0.15432078 -0.31448856 0.08406772 -0.122771606 -0.11720556 0.07953398 0.3262378 -0.33256462
0.054049566 -0.021225706 -0.47974202 -0.10375497 0.016076388 -0.3488201 -0.46813047 -0.5643317
-0.65845215 -0.7012239 -0.10314382 -0.06464666 0.06964011 -0.013297543 0.007073101 -0.34477
0.07553006 0.06237501 -0.5306971 0.642153 -0.64513576 0.064556435 0.2185244 0.4987619
-0.37785503 -0.33213598 -0.7643353 -0.06282276 0.0022334903 -0.046391886 -0.6729571 -0.4252868
-0.029483784 -0.6182033 0.05109824 -0.37815914 -0.33080915 0.0031049876 -0.21179593 0.09963471
-0.5837625 -0.40516043 -0.062184352 0.098531395 0.06689507 -0.6349418 0.019969985 -0.042821858
-0.28549108 -0.50404173 -0.4635913 0.42546615 -2.070711 0.110741094 0.19879074 -0.7231248
-0.39477217 -0.24940526 0.4594052 0.06291312 -0.05191862 -0.13376401 0.002150361 -2.4824543
-0.07381326 -0.04664664 -0.71859866 -0.1225065 0.016529853 -0.2192214 -0.460252 -0.5391675
-0.6108032 -0.6868048 -0.9102252 -0.43692043 0.04864191 0.053649485 0.015578136 -0.054308265
0.004490746 -0.07749376 -0.5455359 0.3611984 -0.008109105 -0.035862453 0.030833453 0.22800815
-0.37147975 -0.5274901 -4.6168075 -3.5953813 0.098143846 -0.08833982 -0.57178366 -0.30354863
0.03130764 -0.3633929 -0.07597991 -0.11267331 -0.57785404 0.17490302 -0.39453623 -0.019643275
-0.7369813 -0.44163162 0.0037183706 -0.027291358 0.023072585 -0.3479155 -0.107371315 0.11321663
-0.3317345 -0.5045109 -0.4371948 0.061419677 -0.18442163 -0.018602224 0.250165 -0.64815015
-0.3866012 0.020848466 0.39164641 0.04535997 -0.05062955 0.0063682464 -0.07996166 -0.11503445
0.047760274 0.09979795 -0.6350983 0.037217177 -0.0014775515 -0.14051884 -0.48247617 -0.56036514
-0.5019992 -0.7011066 -4.408391 -0.024565954 -0.011713733 0.118362576 0.019019201 -0.30524525
-2.4298344 0.07442065 -0.4944933 0.36579347 0.61542743 0.11357631 -2.7188776 0.19967721
-0.5937139 -0.64715904 -0.9148385 -0.13011026 0.103293344 -0.025766596 -0.5130592 -0.50161105
-0.24262945 -0.48537818 -0.008879199 0.051120155 -0.7699387 -0.039196815 -0.15143412 0.09350574
-0.83721817 -0.49071205 -0.032171577 0.012541249 -0.08787156 -0.25198925 -0.116940856 0.29204327
-0.2044555 -0.48743442 -0.46965957 -0.104898535 -0.13427094 -0.05342704 0.39908192 -0.74551105
-0.37028927 -0.068006 0.18474068 -0.07094968 0.09929253 -0.068039276 0.18236709 -0.13057178
0.0445832 -0.069856085 -0.29731262 0.018012049 0.003164823 -0.033589274 -0.43353888 -0.5875489
-0.60436565 -0.66665196 -0.9084222 0.29619816 -0.010293424 0.0963168 -0.03166215 -2.5900383
-0.11785844 0.018146917 -0.50450444 0.32230958 -0.109987706 -0.11798147 -0.06657069 0.40823564
-0.561161 -0.54709834 -0.09376502 0.22325875 0.005757287 0.11312981 -0.623908 -0.47584084
00000000: fd6d 983e 7206 44bf f0df 8c3d b7f1 4fbe
00000010: 66cd 15bf e00a c7be d4a6 e33d 9d07 db3c
00000020: e966 31bf 5229 18bf 790e 963d 8c34 da3d
00000030: 9212 b13d 9166 a8be 8083 f1ba c7e4 45bd
00000040: 6190 89bd 2262 eabe eb7e eebe e6e4 01bc
00000050: a408 53be f05d a63c 7c34 babd b037 5bbf
00000060: 4406 1ebe a504 a1be b22b ac3d ae6f fbbd
00000070: 7809 f0bd b6e2 a23d a408 a73e e945 aabe
00000080: 1463 5d3d 88e1 adbc bfa0 f5be 7c7d d4bd
00000090: a1b2 833c 8c98 b2be ccae efbe 0b78 10bf
000000a0: 5290 28bf 6983 33bf 113d d3bd 7865 84bd
000000b0: 799f 8e3d f0dd 59bc 79c5 e73b b285 b0be
000000c0: 81af 9a3d f07c 7f3d c4db 07bf 2464 243f
000000d0: 9e27 25bf 2a36 843d dcc4 5f3e b85d ff3e
000000e0: 3776 c1be ba0d aabe 7aab 43bf 38a9 80bd
000000f0: c05f 123b 6b05 3ebd eb46 2cbf 31bf d9be
00000100: fa87 f1bc 9242 1ebf 634c 513d 139e c1be
00000110: d15f a9be 0c7d 4b3b 08e1 58be 480d cc3d
00000120: 7671 15bf 3071 cfbe 05b5 7ebd d4ca c93d
00000130: 4800 893d 8c8b 22bf 1898 a33c f965 2fbd
00000140: e32b 92be e108 01bf d75b edbe b3d6 d93e
00000150: 8786 04c0 3acc e23d cd8f 4b3e b51e 39bf
00000160: 941f cabe 1864 7fbe 2937 eb3e 98d8 803d
00000170: 9ea8 54bd 6ff9 08be 12ed 0c3b 88e0 1ec0
00000180: 682b 97bd 8c10 3fbd 15f6 37bf b0e4 fabd
00000190: 9d69 873c 937b 60be 26a6 ebbe e206 0abf
000001a0: 995d 1cbf 70d2 2fbf 8504 69bf 09b4 dfbe
000001b0: bd3c 473d 90bf 5b3d 703b 7f3c 5872 5ebd
000001c0: 1c27 933b 0cb5 9ebd 3ea8 0bbf ffee b83e
000001d0: 0ddc 04bc 82e4 12bd 7096 fc3c f87a 693e
000001e0: 9832 bebe 9709 07bf e3bc 93c0 ba1a 66c0
000001f0: a4ff c83d 82eb b4bd 6a60 12bf ba6a 9bbe
00000200: 713c 003d a20e babe 5b9b 9bbd 44c1 e6bd
00000210: 3eee 13bf c719 333e a700 cabe efea a0bc
00000220: ceaa 3cbf 8a1d e2be e8af 733b 2092 dfbc
00000230: b802 bd3c fb21 b2be 7ee5 dbbd 1fde e73d
00000240: 1bd9 a9be a027 01bf ffd7 dfbe 3393 7b3d
00000250: 06d9 3cbe b163 98bc a015 803e 2bed 25bf
00000260: 98f0 c5be 67ca aa3c e185 c83e 60cb 393d
00000270: ee60 4fbd b9ac d03b f0c2 a3bd 2f97 ebbd
00000280: 47a0 433d de62 cc3d cd95 22bf 0a71 183d
00000290: 67aa c1ba 2ce4 0fbe 1e07 f7be 1774 0fbf
000002a0: 0583 00bf b97b 33bf 8a11 8dc0 8a3e c9bc
000002b0: f5ea 3fbc 1468 f23d 28ce 9b3c 1b49 9cbe
000002c0: 6882 1bc0 db69 983d 3a2e fdbe 4849 bb3e
000002d0: a78c 1d3f b29a e83d 1702 2ec0 2f78 4c3e
000002e0: a2fd 17bf 37ac 25bf db32 6abf a03b 05be
000002f0: 768b d33d 7814 d3bc d957 03bf 9569 00bf
00000300: db73 78be 7d83 f8be 0f7a 11bc 5e63 513d
00000310: b41a 45bf d78c 20bd 8c11 1bbe f07f bf3d
00000320: ee53 56bf 9c3e fbbe 58c6 03bd d079 4d3c
00000330: 01f6 b3bd bc04 81be b07e efbd b286 953e
00000340: c85c 51be 0191 f9be 3877 f0be 0bd5 d6bd
00000350: 527e 09be 50d6 5abd 7754 cc3e d0d9 3ebf
00000360: 8e96 bdbe bb46 8bbd a92c 3d3e 114e 91bd
00000370: e259 cb3d 2d58 8bbd 70be 3a3e 9cb4 05be
00000380: e09c 363d b510 8fbd 5c39 98be 018e 933c
00000390: eb68 4f3b e894 09bd cff8 ddbe 9b69 16bf
000003a0: b5b7 1abf b4a9 2abf 5b8e 68bf 49a7 973e
000003b0: c0a5 28bc be41 c53d 2cb0 01bd 30c3 25c0
000003c0: c45f f1bd d8a8 943c 3427 01bf c305 a53e
000003d0: 3c41 e1bd 45a0 f1bd 3756 88bd 4304 d13e
000003e0: 3fa8 0fbf a30e 0cbf e007 c0bd f19d 643e
000003f0: a0a7 bc3b 9ab0 e73d 6fb8 1fbf 69a1 f3be

bias f4 [4]
0.14226565 0.08777374 0.17428896 0.08373304
00000000: 16ae 113e b8c2 b33d ce78 323e 3a7c ab3d
